{"keras_version": "2.2.4", "class_name": "Sequential", "config": {"name": "sequential_7", "layers": [{"class_name": "LSTM", "config": {"batch_input_shape": [null, 600, 68], "recurrent_constraint": null, "use_bias": true, "return_sequences": true, "return_state": false, "implementation": 1, "bias_constraint": null, "dtype": "float32", "stateful": false, "kernel_constraint": null, "units": 600, "go_backwards": false, "kernel_initializer": {"class_name": "VarianceScaling", "config": {"mode": "fan_avg", "distribution": "uniform", "seed": null, "scale": 1.0}}, "dropout": 0.0, "activation": "tanh", "recurrent_regularizer": null, "bias_initializer": {"class_name": "Zeros", "config": {}}, "kernel_regularizer": null, "unit_forget_bias": true, "name": "lstm_19", "recurrent_dropout": 0.0, "recurrent_activation": "hard_sigmoid", "activity_regularizer": null, "trainable": true, "bias_regularizer": null, "recurrent_initializer": {"class_name": "Orthogonal", "config": {"gain": 1.0, "seed": null}}, "unroll": false}}, {"class_name": "Dropout", "config": {"trainable": true, "rate": 0.2, "seed": null, "noise_shape": null, "name": "dropout_19"}}, {"class_name": "LSTM", "config": {"recurrent_constraint": null, "kernel_initializer": {"class_name": "VarianceScaling", "config": {"mode": "fan_avg", "distribution": "uniform", "seed": null, "scale": 1.0}}, "return_sequences": true, "return_state": false, "implementation": 1, "bias_constraint": null, "stateful": false, "kernel_constraint": null, "units": 400, "go_backwards": false, "use_bias": true, "dropout": 0.0, "activation": "tanh", "recurrent_regularizer": null, "bias_initializer": {"class_name": "Zeros", "config": {}}, "kernel_regularizer": null, "unit_forget_bias": true, "name": "lstm_20", "recurrent_dropout": 0.0, "recurrent_activation": "hard_sigmoid", "activity_regularizer": null, "trainable": true, "bias_regularizer": null, "recurrent_initializer": {"class_name": "Orthogonal", "config": {"gain": 1.0, "seed": null}}, "unroll": false}}, {"class_name": "Dropout", "config": {"trainable": true, "rate": 0.2, "seed": null, "noise_shape": null, "name": "dropout_20"}}, {"class_name": "LSTM", "config": {"recurrent_constraint": null, "kernel_initializer": {"class_name": "VarianceScaling", "config": {"mode": "fan_avg", "distribution": "uniform", "seed": null, "scale": 1.0}}, "return_sequences": false, "return_state": false, "implementation": 1, "bias_constraint": null, "stateful": false, "kernel_constraint": null, "units": 300, "go_backwards": false, "use_bias": true, "dropout": 0.0, "activation": "tanh", "recurrent_regularizer": null, "bias_initializer": {"class_name": "Zeros", "config": {}}, "kernel_regularizer": null, "unit_forget_bias": true, "name": "lstm_21", "recurrent_dropout": 0.0, "recurrent_activation": "hard_sigmoid", "activity_regularizer": null, "trainable": true, "bias_regularizer": null, "recurrent_initializer": {"class_name": "Orthogonal", "config": {"gain": 1.0, "seed": null}}, "unroll": false}}, {"class_name": "Dropout", "config": {"trainable": true, "rate": 0.2, "seed": null, "noise_shape": null, "name": "dropout_21"}}, {"class_name": "Dense", "config": {"kernel_initializer": {"class_name": "VarianceScaling", "config": {"mode": "fan_avg", "distribution": "uniform", "seed": null, "scale": 1.0}}, "activation": "softmax", "use_bias": true, "kernel_regularizer": null, "bias_initializer": {"class_name": "Zeros", "config": {}}, "bias_constraint": null, "trainable": true, "activity_regularizer": null, "kernel_constraint": null, "units": 600, "bias_regularizer": null, "name": "dense_7"}}]}, "backend": "tensorflow"}