{"keras_version": "2.2.4", "class_name": "Sequential", "config": {"layers": [{"class_name": "LSTM", "config": {"trainable": true, "recurrent_activation": "hard_sigmoid", "return_sequences": true, "activity_regularizer": null, "recurrent_regularizer": null, "recurrent_constraint": null, "kernel_regularizer": null, "dtype": "float32", "kernel_initializer": {"class_name": "VarianceScaling", "config": {"mode": "fan_avg", "seed": null, "scale": 1.0, "distribution": "uniform"}}, "bias_regularizer": null, "use_bias": true, "recurrent_dropout": 0.0, "recurrent_initializer": {"class_name": "Orthogonal", "config": {"seed": null, "gain": 1.0}}, "name": "lstm_16", "return_state": false, "dropout": 0.0, "implementation": 1, "bias_constraint": null, "activation": "tanh", "go_backwards": false, "kernel_constraint": null, "bias_initializer": {"class_name": "Zeros", "config": {}}, "batch_input_shape": [null, 600, 68], "unit_forget_bias": true, "units": 600, "stateful": false, "unroll": false}}, {"class_name": "Dropout", "config": {"trainable": true, "noise_shape": null, "rate": 0.2, "seed": null, "name": "dropout_16"}}, {"class_name": "LSTM", "config": {"trainable": true, "recurrent_activation": "hard_sigmoid", "return_sequences": true, "activity_regularizer": null, "recurrent_regularizer": null, "recurrent_constraint": null, "kernel_regularizer": null, "use_bias": true, "kernel_initializer": {"class_name": "VarianceScaling", "config": {"mode": "fan_avg", "seed": null, "scale": 1.0, "distribution": "uniform"}}, "bias_regularizer": null, "recurrent_dropout": 0.0, "recurrent_initializer": {"class_name": "Orthogonal", "config": {"seed": null, "gain": 1.0}}, "name": "lstm_17", "return_state": false, "dropout": 0.0, "implementation": 1, "bias_constraint": null, "activation": "tanh", "go_backwards": false, "kernel_constraint": null, "bias_initializer": {"class_name": "Zeros", "config": {}}, "unit_forget_bias": true, "units": 600, "stateful": false, "unroll": false}}, {"class_name": "Dropout", "config": {"trainable": true, "noise_shape": null, "rate": 0.2, "seed": null, "name": "dropout_17"}}, {"class_name": "LSTM", "config": {"trainable": true, "recurrent_activation": "hard_sigmoid", "return_sequences": false, "activity_regularizer": null, "recurrent_regularizer": null, "recurrent_constraint": null, "kernel_regularizer": null, "use_bias": true, "kernel_initializer": {"class_name": "VarianceScaling", "config": {"mode": "fan_avg", "seed": null, "scale": 1.0, "distribution": "uniform"}}, "bias_regularizer": null, "recurrent_dropout": 0.0, "recurrent_initializer": {"class_name": "Orthogonal", "config": {"seed": null, "gain": 1.0}}, "name": "lstm_18", "return_state": false, "dropout": 0.0, "implementation": 1, "bias_constraint": null, "activation": "tanh", "go_backwards": false, "kernel_constraint": null, "bias_initializer": {"class_name": "Zeros", "config": {}}, "unit_forget_bias": true, "units": 400, "stateful": false, "unroll": false}}, {"class_name": "Dropout", "config": {"trainable": true, "noise_shape": null, "rate": 0.2, "seed": null, "name": "dropout_18"}}, {"class_name": "Dense", "config": {"trainable": true, "bias_constraint": null, "activation": "relu", "name": "dense_11", "use_bias": true, "kernel_constraint": null, "bias_initializer": {"class_name": "Zeros", "config": {}}, "kernel_regularizer": null, "kernel_initializer": {"class_name": "VarianceScaling", "config": {"mode": "fan_avg", "seed": null, "scale": 1.0, "distribution": "uniform"}}, "bias_regularizer": null, "units": 400, "activity_regularizer": null}}, {"class_name": "Dense", "config": {"trainable": true, "bias_constraint": null, "activation": "sigmoid", "name": "dense_12", "use_bias": true, "kernel_constraint": null, "bias_initializer": {"class_name": "Zeros", "config": {}}, "kernel_regularizer": null, "kernel_initializer": {"class_name": "VarianceScaling", "config": {"mode": "fan_avg", "seed": null, "scale": 1.0, "distribution": "uniform"}}, "bias_regularizer": null, "units": 600, "activity_regularizer": null}}], "name": "sequential_6"}, "backend": "tensorflow"}