{"class_name": "Sequential", "keras_version": "2.2.4", "backend": "tensorflow", "config": {"layers": [{"class_name": "LSTM", "config": {"implementation": 1, "units": 600, "return_state": false, "recurrent_constraint": null, "bias_initializer": {"class_name": "Zeros", "config": {}}, "bias_regularizer": null, "activation": "tanh", "use_bias": true, "recurrent_activation": "hard_sigmoid", "dropout": 0.0, "unroll": false, "return_sequences": true, "kernel_constraint": null, "activity_regularizer": null, "recurrent_initializer": {"class_name": "Orthogonal", "config": {"gain": 1.0, "seed": null}}, "kernel_regularizer": null, "batch_input_shape": [null, 600, 68], "dtype": "float32", "trainable": true, "stateful": false, "recurrent_regularizer": null, "name": "lstm_22", "recurrent_dropout": 0.0, "kernel_initializer": {"class_name": "VarianceScaling", "config": {"seed": null, "mode": "fan_avg", "scale": 1.0, "distribution": "uniform"}}, "go_backwards": false, "unit_forget_bias": true, "bias_constraint": null}}, {"class_name": "Dropout", "config": {"noise_shape": null, "name": "dropout_22", "trainable": true, "seed": null, "rate": 0.2}}, {"class_name": "LSTM", "config": {"implementation": 1, "units": 600, "return_state": false, "recurrent_constraint": null, "bias_initializer": {"class_name": "Zeros", "config": {}}, "bias_regularizer": null, "activation": "tanh", "use_bias": true, "recurrent_dropout": 0.0, "dropout": 0.0, "unroll": false, "recurrent_activation": "hard_sigmoid", "return_sequences": true, "kernel_constraint": null, "activity_regularizer": null, "recurrent_initializer": {"class_name": "Orthogonal", "config": {"gain": 1.0, "seed": null}}, "kernel_regularizer": null, "trainable": true, "stateful": false, "recurrent_regularizer": null, "name": "lstm_23", "kernel_initializer": {"class_name": "VarianceScaling", "config": {"seed": null, "mode": "fan_avg", "scale": 1.0, "distribution": "uniform"}}, "go_backwards": false, "unit_forget_bias": true, "bias_constraint": null}}, {"class_name": "Dropout", "config": {"noise_shape": null, "name": "dropout_23", "trainable": true, "seed": null, "rate": 0.2}}, {"class_name": "LSTM", "config": {"implementation": 1, "units": 400, "return_state": false, "recurrent_constraint": null, "bias_initializer": {"class_name": "Zeros", "config": {}}, "bias_regularizer": null, "activation": "tanh", "use_bias": true, "recurrent_dropout": 0.0, "dropout": 0.0, "unroll": false, "recurrent_activation": "hard_sigmoid", "return_sequences": false, "kernel_constraint": null, "activity_regularizer": null, "recurrent_initializer": {"class_name": "Orthogonal", "config": {"gain": 1.0, "seed": null}}, "kernel_regularizer": null, "trainable": true, "stateful": false, "recurrent_regularizer": null, "name": "lstm_24", "kernel_initializer": {"class_name": "VarianceScaling", "config": {"seed": null, "mode": "fan_avg", "scale": 1.0, "distribution": "uniform"}}, "go_backwards": false, "unit_forget_bias": true, "bias_constraint": null}}, {"class_name": "Dropout", "config": {"noise_shape": null, "name": "dropout_24", "trainable": true, "seed": null, "rate": 0.2}}, {"class_name": "Dense", "config": {"units": 400, "activation": "relu", "bias_regularizer": null, "trainable": true, "bias_initializer": {"class_name": "Zeros", "config": {}}, "use_bias": true, "kernel_regularizer": null, "name": "dense_15", "kernel_initializer": {"class_name": "VarianceScaling", "config": {"seed": null, "mode": "fan_avg", "scale": 1.0, "distribution": "uniform"}}, "kernel_constraint": null, "activity_regularizer": null, "bias_constraint": null}}, {"class_name": "Dense", "config": {"units": 600, "activation": "sigmoid", "bias_regularizer": null, "trainable": true, "bias_initializer": {"class_name": "Zeros", "config": {}}, "use_bias": true, "kernel_regularizer": null, "name": "dense_16", "kernel_initializer": {"class_name": "VarianceScaling", "config": {"seed": null, "mode": "fan_avg", "scale": 1.0, "distribution": "uniform"}}, "kernel_constraint": null, "activity_regularizer": null, "bias_constraint": null}}], "name": "sequential_8"}}