{"class_name": "Sequential", "backend": "tensorflow", "config": {"layers": [{"class_name": "LSTM", "config": {"unroll": false, "recurrent_initializer": {"class_name": "Orthogonal", "config": {"gain": 1.0, "seed": null}}, "recurrent_dropout": 0.0, "units": 600, "bias_regularizer": null, "use_bias": true, "go_backwards": false, "dropout": 0.0, "dtype": "float32", "kernel_initializer": {"class_name": "VarianceScaling", "config": {"distribution": "uniform", "mode": "fan_avg", "seed": null, "scale": 1.0}}, "recurrent_activation": "hard_sigmoid", "stateful": false, "return_sequences": true, "kernel_regularizer": null, "batch_input_shape": [null, 600, 68], "unit_forget_bias": true, "implementation": 1, "bias_initializer": {"class_name": "Zeros", "config": {}}, "return_state": false, "activity_regularizer": null, "recurrent_constraint": null, "kernel_constraint": null, "recurrent_regularizer": null, "name": "lstm_19", "bias_constraint": null, "activation": "tanh", "trainable": true}}, {"class_name": "Dropout", "config": {"noise_shape": null, "name": "dropout_19", "seed": null, "rate": 0.2, "trainable": true}}, {"class_name": "LSTM", "config": {"unroll": false, "recurrent_initializer": {"class_name": "Orthogonal", "config": {"gain": 1.0, "seed": null}}, "recurrent_dropout": 0.0, "units": 400, "bias_regularizer": null, "go_backwards": false, "dropout": 0.0, "recurrent_activation": "hard_sigmoid", "kernel_initializer": {"class_name": "VarianceScaling", "config": {"distribution": "uniform", "mode": "fan_avg", "seed": null, "scale": 1.0}}, "stateful": false, "return_sequences": true, "kernel_regularizer": null, "use_bias": true, "unit_forget_bias": true, "implementation": 1, "bias_initializer": {"class_name": "Zeros", "config": {}}, "return_state": false, "activity_regularizer": null, "recurrent_constraint": null, "kernel_constraint": null, "recurrent_regularizer": null, "name": "lstm_20", "bias_constraint": null, "activation": "tanh", "trainable": true}}, {"class_name": "Dropout", "config": {"noise_shape": null, "name": "dropout_20", "seed": null, "rate": 0.2, "trainable": true}}, {"class_name": "LSTM", "config": {"unroll": false, "recurrent_initializer": {"class_name": "Orthogonal", "config": {"gain": 1.0, "seed": null}}, "recurrent_dropout": 0.0, "units": 300, "bias_regularizer": null, "go_backwards": false, "dropout": 0.0, "recurrent_activation": "hard_sigmoid", "kernel_initializer": {"class_name": "VarianceScaling", "config": {"distribution": "uniform", "mode": "fan_avg", "seed": null, "scale": 1.0}}, "stateful": false, "return_sequences": false, "kernel_regularizer": null, "use_bias": true, "unit_forget_bias": true, "implementation": 1, "bias_initializer": {"class_name": "Zeros", "config": {}}, "return_state": false, "activity_regularizer": null, "recurrent_constraint": null, "kernel_constraint": null, "recurrent_regularizer": null, "name": "lstm_21", "bias_constraint": null, "activation": "tanh", "trainable": true}}, {"class_name": "Dropout", "config": {"noise_shape": null, "name": "dropout_21", "seed": null, "rate": 0.2, "trainable": true}}, {"class_name": "Dense", "config": {"name": "dense_7", "use_bias": true, "bias_initializer": {"class_name": "Zeros", "config": {}}, "kernel_regularizer": null, "units": 600, "activity_regularizer": null, "bias_regularizer": null, "kernel_constraint": null, "kernel_initializer": {"class_name": "VarianceScaling", "config": {"distribution": "uniform", "mode": "fan_avg", "seed": null, "scale": 1.0}}, "bias_constraint": null, "activation": "sigmoid", "trainable": true}}], "name": "sequential_7"}, "keras_version": "2.2.4"}